forest_cover_model_pytorch.pth (torch, 77557 bytes, 10 tensors)

net.0.weight f4 [128, 54]
0	0x3f182296	0.59427774
1	0xbe865521	-0.26236823
2	0xbdf6b6c9	-0.12046582
3	0x3c8085ad	0.015688742
4	0xbe12209e	-0.14270255
5	0xbf35883d	-0.7091101
6	0x3e22eb73	0.15910129
7	0x3d9a30c2	0.07528831
8	0x3cbadc7a	0.02281021
9	0x3e37bfbe	0.17944238
10	0x3e81d8fb	0.25360855
11	0xbea2b621	-0.31779578
12	0xbb3667bb	-0.0027832824
13	0xbdd33f71	-0.10314835
14	0xbddacda5	-0.10683755
15	0xbd95b631	-0.07310141
16	0xbcaa6975	-0.020802239
17	0xbd4449d3	-0.047921967
18	0xbe0f4e0f	-0.1399462
19	0xbdf22b0a	-0.11824615
20	0xbd731e05	-0.0593548
21	0x3d567784	0.052360073
22	0x3c7812aa	0.015141169
23	0xbe10001b	-0.1406254
24	0xbd3d2c76	-0.04618498
25	0x3e15b4ce	0.14619753
26	0x3db605b4	0.088878065
27	0xbca2341d	-0.01980024
28	0xbd2c03a2	-0.041995652
29	0x3d8edf16	0.06976144
30	0x3dd7aa3d	0.10530517
31	0x3dd19910	0.102342725
32	0xbcce1cdc	-0.025160246
33	0x3dc8288a	0.09773357
34	0xbbc82ea7	-0.006109077
35	0xbdacf3e4	-0.08444956
36	0x3cffca74	0.031224467
37	0x3c798f10	0.015231863
38	0x3e290f79	0.16509809
39	0xbdd9716b	-0.10617336
40	0x3d8ba1d2	0.06817974
41	0x3c9e8684	0.019351251
42	0x3e26d14b	0.16290776
43	0xbe69ee1a	-0.22844735
44	0x3cba3879	0.022732006
45	0x3d4296c4	0.047507063
46	0x3e876d71	0.26450685
47	0xbcc807c2	-0.024417762
48	0xbdbde832	-0.09272803
49	0xbdcc4faa	-0.09976132
50	0x3dbc4e51	0.09194625
51	0xbe0d10b7	-0.13775907
52	0xbe059aa5	-0.13047273
53	0xbe1e5e14	-0.15465575
54	0x3ea74dae	0.32676452
55	0x3d7f10b8	0.062271804
56	0x3df75d87	0.12078386
57	0xbf213986	-0.629784
58	0xbe5e8da1	-0.21733715
59	0xbf49c31b	-0.7881333
60	0x3d0de429	0.03464142
61	0x3b5ad09d	0.0033388503
62	0x3db153e8	0.08658582
63	0xbee7c582	-0.45267874
64	0xbddaa326	-0.10675649
65	0x3e9045ed	0.2817835
66	0x3ea75669	0.32683113
67	0xbf1fc245	-0.62405807
68	0x3c6555a0	0.013997465
69	0xbe23d83d	-0.16000457
70	0xbd85d2a0	-0.06534314
71	0xbe6cba51	-0.23117949
72	0x3c1699ef	0.009191974
73	0xbcefbef2	-0.029265855
74	0xbcc86f61	-0.024467172
75	0x3ddc74bb	0.10764452
76	0x3e2b53d0	0.1673119
77	0x3dacc8b6	0.0843672
78	0xbe0c0698	-0.1367439
79	0x3e5481ba	0.20752612
80	0x3c8b5084	0.017006166
81	0xbe06040c	-0.13087481
82	0x3e1fabba	0.15592852
83	0xbe22eb79	-0.15910138
84	0x3da85650	0.08219588
85	0xbbb7e075	-0.005611474
86	0x3ded0e96	0.11575048
87	0xbcf08314	-0.029359378
88	0xbd9616bd	-0.07328556
89	0xbe0c7668	-0.13717043
90	0x3e8bb454	0.27286017
91	0x3ee93a68	0.45552373
92	0xbd7b17c8	-0.061301976
93	0x3d88b020	0.06674218
94	0xbc9d3e50	-0.019194752
95	0xbdb8fdcd	-0.09032784
96	0xbef32bf9	-0.47494486
97	0xbe44f8b7	-0.19235502
98	0xbe0af358	-0.13569391
99	0x3e89c7b0	0.26910162
100	0xbe18b8c3	-0.14914231
101	0x3ddd9ac6	0.10820536
102	0xbd340157	-0.04394659
103	0x3cc86848	0.024463788
104	0xbd0b149a	-0.033955194
105	0x3d4ac26d	0.049501825
106	0xbd8539eb	-0.065051876
107	0xbb69bb2c	-0.0035664542
108	0x3f11ccba	0.5695301
109	0xbd3bbb83	-0.045833122
110	0x3d9e776a	0.0773762
111	0xbf7d3358	-0.9890647
112	0xbf5d5de3	-0.86471385
113	0x3f60097c	0.8751447
114	0x3e005aa6	0.1253458
115	0x3ccc2084	0.024917848
116	0xbb300ce1	-0.0026863145
117	0xbead6722	-0.33867747
118	0x3e70243d	0.23451324
119	0xbd95d848	-0.07316643
120	0xbe1de40e	-0.15419027
121	0x3ec8be78	0.39207816
122	0x3c1db7a6	0.009626305
123	0x3c50085a	0.012697304
124	0x3e6d149a	0.2315239
125	0x3d7b1cc9	0.06130675
126	0x3df33b33	0.11876526
127	0x3cf9a94b	0.030476233
128	0xbd683fb0	-0.056701362
129	0xbdadd195	-0.0848724
130	0xbdf9f6e7	-0.12205296
131	0xbe27987a	-0.16366759
132	0x3da86bbe	0.08223675
133	0x3e02b28c	0.12763423
134	0xbcbc4eab	-0.02298673
135	0xbd4c15da	-0.049825527
136	0x38f2ab3c	0.00011571354
137	0xbdf3c055	-0.11901919
138	0x3d59d47d	0.05318116
139	0x3deb6434	0.114937216
140	0xbd5c2a1d	-0.0537511
141	0x3df0221f	0.11725258
142	0x3d8800b1	0.06640757
143	0x3ca30ba2	0.019903008
144	0xbd52216e	-0.051301412
145	0xbdcf1735	-0.10111848
146	0xbdaa5765	-0.083174504
147	0x3dba08ae	0.09083687
148	0x3e31ad9c	0.17351383
149	0xbd1f7c60	-0.038936973
150	0xbe599b75	-0.21250708
151	0x3e7a322f	0.24433206
152	0xbe216b72	-0.15763643
153	0xbea4caa0	-0.3218584
154	0x3d5267dc	0.05136858
155	0x3e212547	0.15736876
156	0x3e46aa13	0.19400816
157	0x3dccd0b0	0.100007415
158	0x3e195e0e	0.14977285
159	0x3e9171c4	0.2840711
160	0x3d9a3d1d	0.07531188
161	0x3d48a76e	0.0489878
162	0xbc8fbf48	-0.017547265
163	0x3c806492	0.015672956
164	0xbdaa4ff3	-0.0831603
165	0x3d35c8f0	0.044381082
166	0x3e284310	0.16431832
167	0x3f2c3a8b	0.6727683
168	0xbe2df2eb	-0.16987197
169	0xbe69f1aa	-0.22846094
170	0x3cf03791	0.029323371
171	0xbecbc4fd	-0.39798728
172	0xbd375a7b	-0.044764023
173	0x3ecd6903	0.4011918
174	0xbe0109e3	-0.12601428
175	0xbce4b296	-0.027917188
176	0xbe02d2f6	-0.12775788
177	0xbdce65c4	-0.10078004
178	0x3d32b0c4	0.043625608
179	0xbdc67a4c	-0.09691295
180	0xbd1e1bbe	-0.038600676
181	0xbdf18455	-0.117928185
182	0x3bc348de	0.005959614
183	0xbe08bfce	-0.13354418
184	0x3d741ffd	0.05960082
185	0xbe68c9c6	-0.2273322
186	0x3cfd22f5	0.030900458
187	0xbc852ef4	-0.01625774
188	0x3e629b70	0.22129607
189	0xbcdcc6d1	-0.026950272
190	0x3cf2bc6a	0.029630858
191	0xbde93ae8	-0.113881886
192	0x3d80ff62	0.062987104
193	0xbde21dc3	-0.11040833
194	0xbcee31d9	-0.029076504
195	0xbd90cf40	-0.0707078
196	0xbdea66fa	-0.114454225
197	0x3e06d974	0.1316889
198	0x3d615d2e	0.055020504
199	0xbdb017ab	-0.08598264
200	0x3c4dae9c	0.012553837
201	0xbb0dc248	-0.0021630693
202	0xbd563d2e	-0.05230444
203	0xbd906add	-0.070516326
204	0x3e4a210b	0.19739167
205	0xbdf41ff3	-0.11920156
206	0xbdcb04f8	-0.09913057
207	0xbd6d7347	-0.057971265
208	0x3da7adfa	0.0818748
209	0xbde87f8b	-0.11352452
210	0xbd927970	-0.071520686
211	0xbdb280cd	-0.08715973
212	0xbca6fbb4	-0.020383693
213	0x3e0d4eee	0.1379964
214	0x3c6b2e64	0.014354322
215	0x3dd2ff01	0.103025444
216	0xbfa0e9f7	-1.25714
217	0xbce16cfb	-0.027517786
218	0xbdb0d1d6	-0.08633773
219	0x3e632b94	0.22184592
220	0x3e07938a	0.13239875
221	0xbe78bdd6	-0.24291167
222	0x3d6905ed	0.056890417
223	0xbe372db1	-0.17888524
224	0xbe7a3186	-0.24432954
225	0x3f5d254a	0.86385024
226	0xbe1059ad	-0.14096709
227	0x3f001eb7	0.5004687
228	0x3c1d4532	0.009599017
229	0xbe4f1ca9	-0.20225777
230	0x3b9b8157	0.004745643
231	0xbdb44f37	-0.088041715
232	0xba3f92a7	-0.00073079247
233	0x3c7b7aa9	0.015349069
234	0x3ce8bef3	0.028411364
235	0xbe00d3bc	-0.1258077
236	0xbd96d1f3	-0.073642634
237	0xbdd47c74	-0.103753
238	0xbdcf772f	-0.10130154
239	0xbe10da93	-0.1414588
240	0xbcaefb95	-0.021360198
241	0x3ce3c25d	0.02780264
242	0x3e54cc16	0.20780978
243	0xbdb0cf7b	-0.08633324
244	0x3e7a783d	0.2445993
245	0x3ccd2e2a	0.025046427
246	0x3da7dea4	0.08196762
247	0xbe2c58e9	-0.16830792
248	0xbd830602	-0.0639763
249	0xbaf6c561	-0.0018827134
250	0xbddfd375	-0.10929004
251	0xbb2ff816	-0.0026850752
252	0xbdca7d6e	-0.09887205
253	0x3db1c439	0.086800046
254	0x3d4e2020	0.050323606
255	0xbd6e7775	-0.05821939

net.0.bias f4 [128]
0	0x3e08eb1d	0.13370939
1	0xbe39fe77	-0.18163477
2	0xbeb59cda	-0.3547123
3	0x3cccf15d	0.025017435
4	0xbf06677c	-0.52501655
5	0xbbd5a785	-0.006520214
6	0xbf23e76e	-0.6402501
7	0xbda03571	-0.07822693
8	0x3e1115fa	0.1416854
9	0x3eafe224	0.3435222
10	0x3cb9f3fb	0.022699347
11	0x3d90408d	0.07043562
12	0x3e59d90e	0.21274206
13	0x3e13c051	0.14428832
14	0xbd7513da	-0.059833385
15	0xbdbe4f4b	-0.09292468
16	0xbe1412d7	-0.14460312
17	0xbf31dc28	-0.69476557
18	0x3d26151a	0.040547468
19	0x3d933e4d	0.07189617
20	0xbc85667d	-0.016284222
21	0xbc67649b	-0.014123107
22	0xbd8f571b	-0.06999036
23	0xbbae1bfc	-0.0053133946
24	0xbe322c56	-0.17399725
25	0xbec9f44a	-0.3944419
26	0xbd846835	-0.064651884
27	0x3e03f4e4	0.12886387
28	0x3e70272f	0.23452447
29	0xbcec0382	-0.028810266
30	0x39fbf086	0.00048053655
31	0xbefb75de	-0.49113363
32	0x3d917b3d	0.07103584
33	0xbe8f0c1a	-0.2793892
34	0xbe802278	-0.25026298
35	0xbee5c182	-0.44874197
36	0xbe0aa169	-0.13538136
37	0xbc0057d2	-0.007833438
38	0xbd4ddfa9	-0.050262127
39	0xbd15f72e	-0.036612682
40	0xbf27ac96	-0.6549772
41	0x3d58fe3e	0.05297684
42	0xbf6db697	-0.92856735
43	0xbe60f532	-0.21968535
44	0xbea15efd	-0.31517783
45	0xbea6b1d4	-0.32557547
46	0xbf0b6ffc	-0.5446775
47	0xbe18771c	-0.14889187
48	0xbe8368cd	-0.25665894
49	0x3dfac305	0.12244228
50	0xbdf46f91	-0.11935342
51	0xbdb66a7b	-0.08907028
52	0xbe3f1a51	-0.18662383
53	0xbe6ba071	-0.23010422
54	0xbec8c530	-0.39212942
55	0xbecb2190	-0.39674044
56	0xbdeb27f5	-0.114822306
57	0x3d4c8d24	0.04993929
58	0xbdb1974e	-0.08671437
59	0xbe658336	-0.22413334
60	0xbf16488b	-0.5870444
61	0xbec705d4	-0.38871634
62	0x3a5ba0a5	0.0008378125
63	0xbe92c8b6	-0.28668755
64	0xbe7405c8	-0.2383033
65	0xbeaf6d38	-0.34263015
66	0xbe1150ba	-0.14190951
67	0xbe7b478c	-0.24539012
68	0xbea05644	-0.31315815
69	0xbe822e5e	-0.25426
70	0xbf27d318	-0.6555648
71	0xbe75e498	-0.24012983
72	0xbea8c016	-0.3295905
73	0x3d64e7d4	0.05588515
74	0xbeb349a2	-0.35017115
75	0x3e764c0d	0.24052449
76	0xbe7741a2	-0.2414613
77	0x3ce6096c	0.028080665
78	0x3d1276eb	0.03575794
79	0xbe784149	-0.24243654
80	0x3e604141	0.21899892
81	0x3e405093	0.18780737
82	0xbe275387	-0.16340457
83	0xbebaf5cc	-0.36515653
84	0xbe69fe3b	-0.22850887
85	0xbd90271f	-0.07038712
86	0xbeaab9e8	-0.3334496
87	0x3b80072e	0.003907106
88	0xbe445c04	-0.19175726
89	0x3d820d47	0.06350189
90	0x3e0b1811	0.135834
91	0xbd8ba60d	-0.06818781
92	0xbecb5b4b	-0.39718089
93	0xbe94660c	-0.28984106
94	0xbec4da92	-0.38448006
95	0x3d53a073	0.05166669
96	0x3dc0cc43	0.0941396
97	0xbef86bf8	-0.48519874
98	0xbd01a036	-0.03164693
99	0xbf19bb38	-0.600513
100	0xbe5e7d43	-0.21727471
101	0xbe245c64	-0.16050869
102	0x3dc8963c	0.0979428
103	0xbe9bde74	-0.30443156
104	0xbda74281	-0.081669815
105	0xbef04690	-0.46928835
106	0xbe9032c6	-0.28163737
107	0xbce3c18b	-0.02780225
108	0xbeed2105	-0.46314254
109	0xbd648be8	-0.055797487
110	0xbe470f7a	-0.19439498
111	0xbdf981fb	-0.12182995
112	0xbe8db7e7	-0.2767937
113	0xbec1104c	-0.37707746
114	0xbee0c9f8	-0.4390409
115	0x3dcb6d44	0.0993295
116	0x3ebceabc	0.36897838
117	0xbed1c8a9	-0.40973404
118	0xbe2b1f2d	-0.16711111
119	0xbe8a274b	-0.26983103
120	0xbca2b057	-0.019859476
121	0xbe49c73b	-0.19704907
122	0xbd78af0e	-0.06071382
123	0xbd9b4912	-0.075822964
124	0xbed369f6	-0.4129178
125	0xbde2166c	-0.11039433
126	0x3d749368	0.05971089
127	0x3edaf6d7	0.4276645

net.2.weight f4 [64, 128]
0	0x3dfb4c67	0.12270432
1	0x3eb34169	0.3501084
2	0xbe38e706	-0.18056878
3	0x3e080c3c	0.13285917
4	0x3e9204f6	0.2851941
5	0xbd9e95fd	-0.07743452
6	0xbe0fc89c	-0.1404137
7	0xbd356def	-0.044294294
8	0xbb9eab4e	-0.0048421985
9	0x3d6031e4	0.05473508
10	0xbcb8dffa	-0.022567738
11	0x3c28632c	0.010277551
12	0xbdcb4853	-0.09925904
13	0x3dd981e1	0.106204756
14	0xbe97a09c	-0.29614723
15	0x3d20f562	0.039296515
16	0xbda6267d	-0.0811281
17	0x3e07f282	0.13276103
18	0xbda38b2f	-0.079855315
19	0xbc1bf7c5	-0.009519522
20	0xbddd2e5d	-0.10799859
21	0xbba64f1a	-0.0050753476
22	0xbe2660a5	-0.16247804
23	0x3e128e42	0.1431208
24	0x3e94ab3b	0.29036888
25	0xbcd86253	-0.026414072
26	0xbd8b255c	-0.06794235
27	0x3e09933e	0.13435075
28	0xbdb332a5	-0.08749894
29	0xbdc8cbd9	-0.09804506
30	0xbd7fb416	-0.062427603
31	0x3db67cca	0.089105204
32	0x3db9c00b	0.090698324
33	0xbe01f0d4	-0.12689525
34	0xbe5571d3	-0.20844202
35	0xbd587bd6	-0.052852474
36	0xbd4f7e91	-0.050657813
37	0x3e9cb0a6	0.30603522
38	0xbcdf1403	-0.027231222
39	0xbe2b7178	-0.16742504
40	0xbd7a9589	-0.061177764
41	0x3d15dd9a	0.03658829
42	0xbdd47ce6	-0.10375385
43	0x3db34982	0.08754255
44	0xbddb1974	-0.10698214
45	0xbdf1c3b3	-0.11804905
46	0xbe60974d	-0.21932717
47	0x3d18be62	0.03729094
48	0x3df9a56b	0.12189754
49	0xbddb183f	-0.10697984
50	0x3df464dc	0.119333
51	0xbd0e3997	-0.03472289
52	0x3e2d234f	0.16908
53	0xbe5bd522	-0.21468022
54	0x3d20b0e8	0.03923121
55	0x3e515d45	0.20445736
56	0x3df119cb	0.11772498
57	0x3e186996	0.14884028
58	0xbc323b95	-0.010878463
59	0x3d0471eb	0.032335203
60	0x3e69f247	0.22846328
61	0xbe32774c	-0.1742832
62	0xbd0c6290	-0.034273684
63	0x3e1bc410	0.1521151
64	0xbe25d26c	-0.16193551
65	0x3d3c52ad	0.045977283
66	0x3e12de66	0.14342651
67	0xbc8bf979	-0.017086731
68	0xbc7c246f	-0.015389546
69	0xbe0c6708	-0.13711178
70	0x3d04635e	0.032321326
71	0xbe237c2f	-0.15965341
72	0xbd045a47	-0.032312658
73	0x3eab21fa	0.3342436
74	0x3dbecbf2	0.09316243
75	0xbe8f9ec0	-0.28050804
76	0xbdc317c1	-0.09526015
77	0x3e49eb2a	0.19718614
78	0x3e84bcdd	0.2592534
79	0xbde83f3e	-0.113401875
80	0x3e1d2388	0.15345585
81	0x3e7cc443	0.24684243
82	0x3d219d51	0.03945667
83	0xbdbc9032	-0.092071906
84	0x3dcbb546	0.099466845
85	0xbd98b38b	-0.0745612
86	0xbd756fb3	-0.059920978
87	0x3da3abbb	0.07991739
88	0x3b99ba9e	0.004691436
89	0xbd6b2934	-0.05741234
90	0x3dcf4a82	0.10121633
91	0x3d51428e	0.051088862
92	0x3e1fc675	0.15603049
93	0xbe0972d0	-0.13422704
94	0xbe27f6ca	-0.16402736
95	0xbbcd725d	-0.0062697367
96	0x3e574588	0.21022618
97	0xbeb7da8f	-0.35908934
98	0x3de36aa9	0.11104328
99	0xbde7f9f1	-0.113269694
100	0x3d4ab2b0	0.049486816
101	0xbe169927	-0.1470686
102	0xbe987913	-0.29779872
103	0x3e28fd18	0.16502798
104	0x3ce11b7a	0.027478922
105	0x3eb9db56	0.36300153
106	0x3df6b7cd	0.12046776
107	0x3e36b127	0.17841016
108	0x3c7d4952	0.015459375
109	0xbe3ae250	-0.18250394
110	0xbdfbcb64	-0.12294653
111	0x3e22f732	0.1591461
112	0x3d3014dc	0.042988643
113	0x3da4bb8b	0.080435835
114	0xbd9c44e5	-0.07630328
115	0x3e320fba	0.17388812
116	0x3dd7ff86	0.10546784
117	0x3e2cbbd4	0.16868526
118	0x3d8881da	0.06665392
119	0xbda2a5be	-0.07941769
120	0xbbbe9523	-0.0058161183
121	0xbe6ddadd	-0.23228021
122	0x3cb0d3f7	0.021585448
123	0x3d08a367	0.033358958
124	0x3d90c493	0.070687436
125	0x3e02734c	0.12739295
126	0x3e3ddf9b	0.1854233
127	0xbdbf88f5	-0.09352294
128	0xbdacfe4e	-0.08446942
129	0x3cc85889	0.02445628
130	0xbde77cc5	-0.11303095
131	0xbdda6651	-0.106640466
132	0xbdc16296	-0.09442632
133	0xbd89f386	-0.067359015
134	0x3e110c0b	0.1416475
135	0x3e2cab7a	0.16862288
136	0xbc92f8ee	-0.017940965
137	0xbd438086	-0.04772999
138	0xbda36702	-0.079786316
139	0x3e2408ad	0.16018935
140	0x3d01e475	0.031712014
141	0x3ded553b	0.11588522
142	0xb9fa183d	-0.00047701775
143	0x3e8b793e	0.27240938
144	0xbce3caf9	-0.027806746
145	0x3d9d564a	0.07682474
146	0x3cbbfc3a	0.02294742
147	0x3d920a58	0.07130879
148	0x3ccffe63	0.025389856
149	0x3d6c51fd	0.057695378
150	0x3dcee748	0.10102707
151	0xbd06714e	-0.0328229
152	0x3e4a69f7	0.19766985
153	0xbe04e721	-0.12978794
154	0x3c0dcebc	0.008655246
155	0x3db2d06e	0.08731161
156	0x3cf7f984	0.030270346
157	0xbdbeb8d4	-0.09312597
158	0xba79ef7d	-0.0009534283
159	0xbda18d92	-0.078883305
160	0x3d955beb	0.072929226
161	0x3dd059eb	0.101734005
162	0xbe05d7e5	-0.13070638
163	0x3cac8716	0.021060508
164	0xbd83148f	-0.064004056
165	0x3d6b4223	0.05743612
166	0x3e22f310	0.15913033
167	0x3e41a97e	0.18912312
168	0x3dab5803	0.08366396
169	0xbe132154	-0.14368182
170	0xbdc6017d	-0.096682526
171	0xbb9f4884	-0.0048609395
172	0xbdc44f8e	-0.09585486
173	0x3e064587	0.1311246
174	0xbe31144b	-0.17292897
175	0x3cff5518	0.031168506
176	0xbcab3f31	-0.020904155
177	0xbe43fe3a	-0.19139948
178	0x3c2268f0	0.009912714
179	0xbd902e76	-0.07040112
180	0xbce34da3	-0.027746981
181	0xbd45102d	-0.04811113
182	0x3ca5828b	0.02020385
183	0x3ca64c3e	0.020300027
184	0x3d8636c5	0.06553415
185	0x3cc52747	0.02406658
186	0xbd34dc84	-0.044155613
187	0xbde581f1	-0.11206425
188	0xbd30a3e2	-0.04312504
189	0xbe1304df	-0.14357327
190	0x3e0ad879	0.1355914
191	0xbdfe49ad	-0.12416396
192	0xbd3f78d3	-0.046746086
193	0xbd1dc851	-0.038521115
194	0x3e027981	0.12741663
195	0x3d12a706	0.035803817
196	0xbdd2635f	-0.1027286
197	0xbcfd57b7	-0.030925615
198	0xbd4bf46c	-0.049793646
199	0x3dd4c10a	0.10388382
200	0x3e3e2007	0.18566905
201	0xbdbc4379	-0.09192557
202	0x3da672bb	0.08127352
203	0xbe0313f4	-0.1280058
204	0x3d990d53	0.074732445
205	0xbdb16742	-0.08662273
206	0x3df1cbd5	0.11806456
207	0xbd146dc7	-0.036237504
208	0x3df04fcd	0.11733971
209	0x3d9d1033	0.076691054
210	0xbdb923db	-0.09040042
211	0xbcc7977b	-0.024364224
212	0x3ccca360	0.024980247
213	0x3e4192f3	0.18903713
214	0xbd5deb08	-0.05417922
215	0x3df37716	0.11887948
216	0x3dd748a4	0.10511902
217	0xbe20d876	-0.15707573
218	0xbd967d76	-0.073481485
219	0x3db1dbbf	0.08684491
220	0x3d6e2e11	0.0581494
221	0xbd1473d3	-0.03624327
222	0xbdc9719c	-0.098361224
223	0xbd92251a	-0.07135983
224	0x3b963651	0.0045841117
225	0xbd001cd2	-0.031277485
226	0xbc86f675	-0.016474942
227	0xbd0f2c04	-0.034954086
228	0xbdc78665	-0.097424306
229	0x3d150c83	0.036388885
230	0xbd423793	-0.04741628
231	0xbe048117	-0.12939869
232	0x3e21fa66	0.15818176
233	0x3e3c9112	0.18414715
234	0xbe0e0d26	-0.13872203
235	0x3d97c00a	0.074096754
236	0xbdcebd93	-0.10094752
237	0xbcd21682	-0.025645498
238	0x3b4fd558	0.0031712856
239	0xbd4f7e31	-0.050657455
240	0x3cf925d7	0.030413551
241	0x3c3fe335	0.011711885
242	0x3de89505	0.11356548
243	0x3c8837b1	0.016628118
244	0xbe016593	-0.12636404
245	0xbdab1364	-0.08353308
246	0xbd789466	-0.0606884
247	0xbe1b25d3	-0.15151148
248	0x3de1f3f6	0.1103286
249	0xbe0f235e	-0.13978335
250	0x3d130087	0.035889175
251	0xbc3918cc	-0.011297416
252	0xbc7630cf	-0.015026285
253	0x3c2fc524	0.010728154
254	0xbd08a433	-0.033359718
255	0x3daf1f93	0.08550944

net.2.bias f4 [64]
0	0xbdd7db4b	-0.10539874
1	0xbd93986c	-0.072068065
2	0x3d49fa16	0.049310766
3	0x3e415778	0.18881023
4	0x3e102344	0.14075953
5	0x3ef505ad	0.47855893
6	0x3cb27e6e	0.021788802
7	0xbdcdf194	-0.10055843
8	0xbea29c33	-0.31759796
9	0xbdbba424	-0.09162167
10	0xbe0de2ca	-0.13856044
11	0xbeaf6880	-0.34259415
12	0xbdd99fde	-0.10626195
13	0xbe5c30ac	-0.21502942
14	0x3e0d3d1a	0.1379284
15	0xbb78f89c	-0.003798998
16	0x3db7dd2c	0.08977732
17	0xbda76812	-0.08174147
18	0x3ea476af	0.32121798
19	0x3e5e8b34	0.2173279
20	0xbe76c392	-0.24098042
21	0x3e9ba181	0.30396655
22	0x3de64132	0.11242904
23	0x3ef79422	0.48355204
24	0x3d98e1fd	0.07464979
25	0xbdeb60a4	-0.11493042
26	0x3deb17c5	0.11479143
27	0xbd19dd6a	-0.037564673
28	0xba9e7534	-0.0012089373
29	0xbcbc08a1	-0.022953333
30	0x3c0801b2	0.008301185
31	0xbe6e1566	-0.2325035
32	0xbd21b705	-0.03948118
33	0xbd44b06b	-0.048019808
34	0x3d3173dc	0.043323383
35	0x3e0d0e83	0.13775067
36	0x3dc8341d	0.09775565
37	0xbede7bdb	-0.4345387
38	0x3e207631	0.15670086
39	0xbdb87ff3	-0.090087794
40	0x3d06961f	0.03285801
41	0xbed61d29	-0.41819122
42	0xbe4d1f61	-0.20031501
43	0xbda5665c	-0.08076164
44	0x3e0caa80	0.13736916
45	0x3e9b851d	0.30374995
46	0x3e833477	0.25625965
47	0xbe9fe8eb	-0.3123239
48	0x3b94bc7c	0.0045390707
49	0x3e04beb4	0.12963372
50	0x3e1e970d	0.15487309
51	0x3daac213	0.08337798
52	0x3e9965f9	0.2996061
53	0x3dd76098	0.10516471
54	0x3d1cd1bc	0.038285956
55	0x3d9c2796	0.07624738
56	0xbd926218	-0.07147616
57	0xbde1e089	-0.11029155
58	0xbd14b61f	-0.036306497
59	0xbd975e5b	-0.07391044
60	0x3df599bc	0.11992213
61	0x3e2b1592	0.16707447
62	0x3df92584	0.12165359
63	0xbd88a8e5	-0.06672839

net.4.weight f4 [32, 64]
0	0xbdec486c	-0.11537251
1	0xbe315816	-0.17318758
2	0xbd9ed523	-0.07755496
3	0xbd48004c	-0.048828408
4	0x3a5d720b	0.00084474747
5	0x3d726468	0.059177786
6	0x3c8f0424	0.01745803
7	0x3deed154	0.1166102
8	0xbd4a8fde	-0.04945361
9	0x3d73cded	0.059522558
10	0x3dd52c9c	0.10408899
11	0xbea70c08	-0.32626367
12	0xbe151e70	-0.14562392
13	0xbd135da7	-0.035977986
14	0x3e696e7a	0.2279605
15	0x3e04222d	0.12903662
16	0xbc832178	-0.01600717
17	0x3ebe933e	0.37221712
18	0x3d3618da	0.044457294
19	0xbe94262b	-0.2893537
20	0x3df68cef	0.120386
21	0x3e17991a	0.14804497
22	0xbe40c605	-0.18825538
23	0xbeeaa9d3	-0.4583269
24	0x3c0515f7	0.008122913
25	0x3bcd7c8f	0.006270952
26	0xbe912096	-0.28345174
27	0xbddb9f6e	-0.10723768
28	0xbe15f9cd	-0.14646073
29	0xbd047f74	-0.03234811
30	0x3e5e2ec8	0.21697533
31	0xbcb36103	-0.021896845
32	0x3e9ad321	0.30239204
33	0x3d885e20	0.06658578
34	0x3dd1b32d	0.10239253
35	0xbd7d54df	-0.061848518
36	0xbdc56c55	-0.09639803
37	0x3e965f62	0.29369646
38	0x3de097eb	0.10966476
39	0x3d18919d	0.037248243
40	0xbb30d7e7	-0.0026984157
41	0x3e751a76	0.23935875
42	0x3d3304a3	0.043705594
43	0xbe08e880	-0.13369942
44	0xbe059c21	-0.1304784
45	0x3c46b9c3	0.01212925
46	0xbe413ef6	-0.18871674
47	0xbe8355c1	-0.25651363
48	0xbc182645	-0.009286468
49	0xbe01a5eb	-0.12660949
50	0xbe73b3a6	-0.23798999
51	0xbe3bc142	-0.18335441
52	0x3df3977c	0.11894128
53	0x3e2eeb70	0.17082
54	0x3e2e76f4	0.17037565
55	0xbd57abf3	-0.052654218
56	0x3dec4cee	0.11538111
57	0x3c56710b	0.013088475
58	0x3df8777e	0.12132166
59	0xbe8eb3fa	-0.27871686
60	0xbd2c9423	-0.04213346
61	0x3d7dbcb4	0.06194754
62	0xbdbc5a24	-0.091968805
63	0xbd3acecf	-0.045607384
64	0x3bb7b8ab	0.005606731
65	0xbd397ea7	-0.0452868
66	0xbdfe8c9d	-0.124291636
67	0x3c7104dd	0.014710632
68	0x3e596506	0.21229944
69	0xbaaa5824	-0.0012996239
70	0xbdc75cc4	-0.097344905
71	0x3dfbe9de	0.12300466
72	0x3c785e11	0.015159146
73	0xbb82d7a3	-0.003992991
74	0x3df3d63d	0.11906097
75	0xbd8e6cae	-0.06954323
76	0x3e628bff	0.22123717
77	0xbe92bd07	-0.2865984
78	0x3db7f9ec	0.08983216
79	0xbe67b9a8	-0.22629416
80	0xbe834a57	-0.25642654
81	0x3e40d587	0.18831454
82	0x3d5bdfb1	0.053680126
83	0xbd86652d	-0.065622665
84	0x3ddd8535	0.10816423
85	0xbcf065df	-0.02934545
86	0xbe658391	-0.2241347
87	0x3e3f30f2	0.18671015
88	0xbe73695b	-0.23770659
89	0x3d928659	0.07154531
90	0x3e268e41	0.16265203
91	0xbb0a4d96	-0.0021103374
92	0xbe9542a0	-0.29152393
93	0x3e84a7cd	0.25909272
94	0x3e935a26	0.28779715
95	0xbdd18cf8	-0.10231966
96	0x3e473b96	0.19456324
97	0x3ead8b85	0.33895507
98	0x3c3184cc	0.010834884
99	0xbc53ccb9	-0.012927228
100	0xbab38ad7	-0.0013697994
101	0xbe178700	-0.14797592
102	0x3e640ede	0.22271296
103	0x3deabb9e	0.114615664
104	0xbe7f08c0	-0.24905682
105	0x3e3ce56a	0.1844689
106	0xbbcfef05	-0.006345632
107	0xbd8a9e88	-0.06768519
108	0x3e191d19	0.14952506
109	0xbe3beec1	-0.18352796
110	0x3e171eab	0.14757793
111	0xbeab0894	-0.33404982
112	0xbee22349	-0.44167545
113	0xbc98e597	-0.018664164
114	0x3df77dc8	0.12084538
115	0x3eaaada3	0.333356
116	0x3da20e85	0.07912926
117	0xbd5322c7	-0.051546838
118	0xbe4ae26b	-0.19812934
119	0x3dca170a	0.098676756
120	0x3e09b0f8	0.13446414
121	0x3c897a9a	0.016782094
122	0x3e025f64	0.12731701
123	0x3e089920	0.13339663
124	0xbe2fe902	-0.17178729
125	0xbe2a5d0d	-0.16637059
126	0x3e9060da	0.28198892
127	0x3dc27bfa	0.09496303
128	0x3e1dacff	0.15398024
129	0xbda5f3ed	-0.08103166
130	0xbc6156b9	-0.013753586
131	0x3df94f7b	0.12173363
132	0xbdd46e62	-0.10372616
133	0xbe0b5365	-0.13606031
134	0x3ce1a0cc	0.027542494
135	0x3e8a6e41	0.27037242
136	0x3e28614a	0.16443363
137	0x3ca2156e	0.01978561
138	0x3e3943b7	0.18092237
139	0xbd00fc81	-0.031490806
140	0x3d7b8824	0.06140913
141	0x3d92f09c	0.07174799
142	0xbe236768	-0.15957415
143	0x3e13067b	0.14357941
144	0xbd5e2060	-0.054230094
145	0x3ebe1212	0.37123162
146	0xbc88376b	-0.016627988
147	0xbe8b8dab	-0.27256522
148	0x3e596cfe	0.21232983
149	0x3d86c5ad	0.065806724
150	0xbd92d1fc	-0.071689576
151	0xbd222857	-0.039589252
152	0xbe5c8621	-0.21535541
153	0xbe3ea694	-0.18618232
154	0xbdc30913	-0.09523215
155	0xbe1abbcc	-0.15110701
156	0x3e269e0c	0.16271228
157	0x3dffab4e	0.12483846
158	0x3d2b7569	0.041860018
159	0x3d350dd0	0.044202626
160	0xbdab24c2	-0.0835662
161	0xbbad97f6	-0.005297656
162	0xbc92b89d	-0.017910296
163	0xbdb11bd1	-0.08647884
164	0x3e6ed827	0.23324643
165	0x3e17b9ed	0.14817019
166	0xbd994e96	-0.07485692
167	0xbd5159c0	-0.051110983
168	0xbe957505	-0.2919084
169	0x3e72b2cc	0.23701018
170	0x3bb3edac	0.005490979
171	0xbd5275de	-0.05138194
172	0xbcccfc65	-0.025022695
173	0x3e0593d1	0.13044669
174	0x3dc284b5	0.09497968
175	0xbdb4f9c7	-0.08836704
176	0x3d81f639	0.06345791
177	0x3e704bc9	0.2346641
178	0xbe1d887b	-0.15384094
179	0x3d31a7ad	0.0433728
180	0x3e0ddd59	0.13853969
181	0x3c911401	0.017709734
182	0xbc88f0dc	-0.016716413
183	0xbc9d9ec8	-0.019240752
184	0x3e4296a4	0.19002777
185	0x3cf86c90	0.030325204
186	0xbda373a6	-0.079810426
187	0x3d994a5d	0.07484887
188	0x3cd484fc	0.025942318
189	0x3ddd2823	0.10798671
190	0x3e0e9553	0.1392415
191	0x3e1f5352	0.15559128
192	0xbda97ebf	-0.08276128
193	0x3e320b83	0.17387204
194	0xbe54a8ab	-0.20767467
195	0x3e10e2d3	0.14149027
196	0x3e1ee3a0	0.1551652
197	0xbe2c8f40	-0.1685152
198	0xbe0cee47	-0.1376277
199	0xbd0c693b	-0.034280043
200	0x3e828af2	0.25496632
201	0x3def119f	0.11673283
202	0xbe51351d	-0.20430417
203	0xbd2d9dce	-0.042386822
204	0xbca5a77f	-0.02022147
205	0x3e0e217e	0.13879964
206	0x3dc9a127	0.098451905
207	0xbe379097	-0.1792625
208	0xbcd2a274	-0.02571223
209	0x3de89f20	0.11358476
210	0xbea88a98	-0.3291824
211	0x3e0bc1d6	0.13648161
212	0x3e64097d	0.22269244
213	0xbf05608b	-0.5210044
214	0x3e9b7a77	0.3036687
215	0xbbf6cb98	-0.0075315945
216	0x3dd2719e	0.10275577
217	0x3ea0e82c	0.31427133
218	0x3e408e29	0.1880423
219	0xbd82d5bd	-0.063884236
220	0x3e0dc6fe	0.13845441
221	0xbe20e1d0	-0.1571114
222	0xbd4fa36a	-0.050692953
223	0x3dd55793	0.10417094
224	0x3e625cf1	0.22105767
225	0xbe89c085	-0.26904693
226	0xbdac3e15	-0.08410279
227	0x3e8e04e1	0.27738097
228	0xbd213e91	-0.03936631
229	0xbef0be14	-0.47020018
230	0xbd6d6324	-0.057955876
231	0xbd87a60b	-0.06623467
232	0x3dcba63c	0.09943816
233	0x3ccda9a1	0.0251053
234	0xbda1759d	-0.07883761
235	0xbe1e3d0a	-0.15452972
236	0x3e8a4ba8	0.27010846
237	0x3d19fc89	0.037594352
238	0xbe5ba602	-0.21450046
239	0x3e3bca9b	0.18339007
240	0xbdb41844	-0.08793691
241	0xbca90996	-0.020634454
242	0x3dc417bd	0.0957484
243	0xbd5fb66b	-0.054617327
244	0x3e178462	0.14796594
245	0x3e19b68a	0.1501104
246	0xbd8cb69c	-0.068707675
247	0x3e60bf5d	0.21948
248	0xbe96b619	-0.29435804
249	0xbe097607	-0.1342393
250	0xbd0d2030	-0.034454525
251	0x3e1e53cb	0.15461652
252	0x3e638cc3	0.22221665
253	0x3e02bed3	0.12768106
254	0xbcc4b103	-0.024010187
255	0x3e06a7b8	0.13149917

net.4.bias f4 [32]
0	0xbc34d8db	-0.0110380305
1	0x3e7087ed	0.23489352
2	0x3dead003	0.11465456
3	0x3d78fc35	0.0607874
4	0xbd1453de	-0.036212794
5	0xbcab3864	-0.020900913
6	0xbd3dc633	-0.046331596
7	0xbcc48cd0	-0.023992926
8	0x3e028cee	0.12749073
9	0x3ec762a3	0.3894244
10	0x3df1cfd2	0.11807217
11	0x3de0478c	0.109511465
12	0xbe4dc09e	-0.20093009
13	0x3e86310a	0.2620929
14	0xbe1fc752	-0.15603378
15	0x3e679336	0.2261475
16	0x3ce1a50e	0.027544525
17	0x3c7be75c	0.015374985
18	0x3e958c6e	0.29208702
19	0x3e683b58	0.22678888
20	0x3de24f4e	0.110502824
21	0x3ec92154	0.3928324
22	0xbd621d9c	-0.05520402
23	0x3e2e91bc	0.17047781
24	0x3e569c4c	0.2095806
25	0x3b802e47	0.0039117667
26	0x3ea82ad1	0.32845166
27	0xbdb7073c	-0.08936927
28	0xbbcf88d7	-0.0063334513
29	0x3e62f60b	0.2216417
30	0x3ee3ec4f	0.44516227
31	0x3e2f6a53	0.17130403

net.6.weight f4 [16, 32]
0	0xbeca1c58	-0.3947475
1	0x3f152568	0.582602
2	0xbdf823b4	-0.12116185
3	0x3f02826d	0.50980264
4	0xbed384f6	-0.4131238
5	0x3f0c2189	0.5473867
6	0xbf0afc51	-0.54291254
7	0xbdab8d0d	-0.08376513
8	0x3efbdca6	0.4919178
9	0xbed59663	-0.41716298
10	0x3ec068d8	0.3757999
11	0xbe8c5112	-0.27405602
12	0x3ee3c100	0.44483185
13	0xbe7aabe4	-0.24479634
14	0xbe5b6942	-0.21426871
15	0x3e671654	0.22567111
16	0xbea4d57d	-0.3219413
17	0x3f27664a	0.65390456
18	0xbe95f0c8	-0.29285264
19	0xbe832bdd	-0.25619403
20	0xbda7756f	-0.081766956
21	0x3ecb8aee	0.39754432
22	0xbd3223a3	-0.043491017
23	0x3e9f1679	0.31071833
24	0xbebd93e6	-0.370269
25	0x3f0c52b5	0.548137
26	0x3f40afde	0.7526835
27	0xbd245a0a	-0.04012493
28	0x3ede68a7	0.43439218
29	0xbeee1583	-0.46500787
30	0x3d973c6e	0.07384573
31	0xbdbe3f06	-0.092893645
32	0x3c7814e4	0.015141699
33	0xbd115ff4	-0.0354919
34	0xbe2a56a9	-0.1663462
35	0x3ebdd065	0.37073055
36	0x3def1902	0.11674692
37	0x3e45d6cd	0.19320221
38	0xbf02acfc	-0.51045203
39	0xbe6c523b	-0.23078243
40	0x3eb84c45	0.3599569
41	0x3f1f9d96	0.6234983
42	0x3db9e6ad	0.09077201
43	0xbedbad68	-0.42905736
44	0x3e1ba363	0.15199046
45	0xbf135fe7	-0.5756821
46	0x3e0ae4cb	0.1356384
47	0x3e51f63f	0.20504092
48	0xbda3585c	-0.079758376
49	0xbf10abe0	-0.5651226
50	0x3e83ffbd	0.2578105
51	0xbd1cea23	-0.038309228
52	0xbd4a7d5e	-0.049435966
53	0x3d0ea948	0.034829408
54	0xbdca09d6	-0.09865157
55	0xbe9d4cfb	-0.30722794
56	0x3bfa63dd	0.007641299
57	0x3edea92e	0.4348845
58	0x3e2989b8	0.16556442
59	0xbefa22c1	-0.4885464
60	0x3f102748	0.5630994
61	0xbe79eaac	-0.24405926
62	0x3e72fe69	0.23729862
63	0x3ec5e609	0.38652065
64	0xbe7d29cf	-0.2472298
65	0xbe8d06e1	-0.2754431
66	0x3db1c202	0.08679582
67	0x3e646aad	0.22306319
68	0xbdc5e228	-0.096622765
69	0x3d607fa4	0.054809228
70	0xbe39b24e	-0.18134424
71	0xbdf66545	-0.120310344
72	0xbe512a82	-0.20426372
73	0x3eff81bf	0.49903676
74	0xbe72ba45	-0.23703869
75	0xbe90a191	-0.28248265
76	0x3e70f3fd	0.23530574
77	0x3cf43ee2	0.029815141
78	0x3d232458	0.039829582
79	0x3f517699	0.8182159
80	0xbd025ef6	-0.031828843
81	0x3deac6f0	0.114637256
82	0x3ee44675	0.44585004
83	0x3e2f5ff8	0.17126453
84	0x3d95f2f7	0.073217325
85	0xbc7b4de1	-0.015338392
86	0x3a4b2f2c	0.00077508646
87	0x3e4d436d	0.20045252
88	0xbe1a45fb	-0.15065758
89	0x3e08e4e4	0.13368565
90	0x3eab2889	0.33429363
91	0xbe075fd5	-0.13220151
92	0x3ee1fe82	0.44139487
93	0x3d8b3137	0.06796496
94	0x3eb41daa	0.35178882
95	0xbdaf1a14	-0.08549896
96	0x3bc6c555	0.0060660043
97	0x3db06ed9	0.086148925
98	0x3da91bf6	0.08257286
99	0xbdfab4bd	-0.12241504
100	0xbccbe848	-0.024891034
101	0xbd7280d0	-0.059204876
102	0xbdf9dc80	-0.1220026
103	0x3c700cbd	0.014651475
104	0xbe2b4ef8	-0.16729343
105	0xbb4ffa18	-0.003173476
106	0x3c26a6c3	0.010171595
107	0xbe0e1249	-0.13874163
108	0xbbb517ff	-0.005526542
109	0x3df06910	0.11738789
110	0xbcdd7da4	-0.02703745
111	0xbda26897	-0.07930105
112	0x3e238d66	0.15971908
113	0x3d047218	0.03233537
114	0x3da7a5cf	0.08185922
115	0xbe01eed7	-0.12688766
116	0xbe231bdf	-0.159286
117	0xbdef32c8	-0.11679608
118	0xbd4fe020	-0.05075085
119	0x3d55901f	0.052139398
120	0xbd19c5a4	-0.037542
121	0x3e282b7f	0.16422842
122	0xbd36eb74	-0.04465814
123	0x3d16bf23	0.036803376
124	0x3d1d3138	0.038377017
125	0xbe0ad68c	-0.13558406
126	0xbccb1d2d	-0.024794186
127	0xbd8d14fc	-0.06888768
128	0xbdebea21	-0.11519266
129	0xbd206246	-0.03915622
130	0xbe302fee	-0.17205784
131	0x3d17bee0	0.037047267
132	0xbe14b0fc	-0.14520639
133	0x3d219d2d	0.039456535
134	0x3ce3af4a	0.027793545
135	0x3da0f042	0.078583255
136	0x3d2f14c2	0.042744406
137	0xbddeebc4	-0.108848125
138	0xbe10b6cf	-0.14132236
139	0x3ce89f4a	0.028396267
140	0xbdb5e90c	-0.08882341
141	0xbddb1602	-0.10697557
142	0xbdd8b325	-0.10581044
143	0xbdf4187c	-0.119187325
144	0x3d78ee4d	0.060774136
145	0x3c07fb72	0.008299695
146	0xbde92021	-0.11383081
147	0x3dd1a9a5	0.10237435
148	0xbdf0d61a	-0.11759587
149	0x3db9aa02	0.090656295
150	0x3ce8507a	0.028358687
151	0xbd51ab00	-0.05118847
152	0xbd2a0bb6	-0.041515075
153	0xbd83a166	-0.06427269
154	0xbdb259fe	-0.08708571
155	0x3dc0627a	0.09393783
156	0x3da0c5d7	0.07850235
157	0x3d5afb0e	0.05346208
158	0xbd0abc10	-0.033870757
159	0xbd7de919	-0.061989877
160	0x3efbbb27	0.49166223
161	0xbe1a0d48	-0.15044129
162	0x3d92268a	0.07136257
163	0xbe8ae7b4	-0.271299
164	0x3ecd340c	0.4007877
165	0xbf2440e6	-0.6416153
166	0x3e26c9ad	0.1628787
167	0xbe96b540	-0.29435158
168	0xbe207318	-0.15668905
169	0x3ef4d552	0.47819
170	0xbe2b2c91	-0.1671622
171	0x3f0630f7	0.52418464
172	0xbe4be248	-0.19910538
173	0x3d8eb625	0.06968335
174	0x3de17766	0.110091016
175	0x3e4e4617	0.20143925
176	0x3e242f75	0.16033728
177	0xbe9add1c	-0.30246818
178	0x3eed83e8	0.463897
179	0x3e90d943	0.28290758
180	0x3e6d32cc	0.23163909
181	0x3de31595	0.11088101
182	0xbddec0b8	-0.10876602
183	0x3ecbb727	0.39788172
184	0x3d83a506	0.0642796
185	0xbeee0036	-0.46484536
186	0xbedfc1fa	-0.4370268
187	0x3e791cc0	0.24327374
188	0x3d4a04fa	0.049321152
189	0x3ea336b2	0.31877667
190	0xbdf8578d	-0.12126074
191	0xbe3c47db	-0.18386786
192	0x3e063c4f	0.13108943
193	0xbe4e35ac	-0.20137662
194	0xbe904b81	-0.28182605
195	0xbe72d068	-0.23712313
196	0x3e3e783b	0.18600552
197	0xbdddea3f	-0.108356945
198	0xbcfa8852	-0.03058258
199	0xbe392427	-0.18080197
200	0xbe4fa73c	-0.20278639
201	0x3ebab0cf	0.3646302
202	0x3d80729f	0.06271862
203	0x3ebeb273	0.3724552
204	0xbd8a69e7	-0.067584805
205	0x3e115259	0.1419157
206	0xbc9d49fa	-0.019200314
207	0xbb186eee	-0.0023259479
208	0xbda6621e	-0.08124183
209	0xbd9748fa	-0.07386966
210	0xbccda2ac	-0.025101982
211	0x3c93e58a	0.018053789
212	0x3defb6ca	0.11704786
213	0x3ddfd0b5	0.109284796
214	0x3e2a52ee	0.16633198
215	0x3d15a254	0.03653176
216	0x3e248e03	0.16069798
217	0xbeb00c3e	-0.3438434
218	0xbd722e32	-0.059126087
219	0xbc549658	-0.012975298
220	0x3e48f382	0.19624141
221	0xbd4b8858	-0.049690574
222	0x3dc30b5d	0.09523652
223	0xbe9c30a7	-0.3050587
224	0xbecfd5e4	-0.40592873
225	0xbe350809	-0.17678846
226	0xbf260e82	-0.6486589
227	0x3d187590	0.03722149
228	0x3f02ed0b	0.5114295
229	0x3ee62090	0.44946718
230	0xbd743fcc	-0.059631154
231	0xbeb9e70a	-0.3630908
232	0xbc514ecf	-0.012775137
233	0xbe140dac	-0.1445834
234	0x3ec8311c	0.39099967
235	0x3ee25d2f	0.44211718
236	0x3edde79c	0.43340766
237	0x3d5e9bd6	0.054347835
238	0xbe0fa608	-0.1402818
239	0xbd93aa8d	-0.07210264
240	0x3d9ea30f	0.07745945
241	0x3f07f785	0.5311206
242	0xbe18a7ee	-0.1490781
243	0xbdcee22f	-0.10101735
244	0xbea32bbf	-0.31869313
245	0xbe5ae4b8	-0.21376312
246	0x3ef786fe	0.48345178
247	0x3e2cb015	0.16864045
248	0x3ee4b647	0.44670317
249	0x3dfdd37d	0.12393854
250	0x3e03259e	0.12807319
251	0xbd922fd0	-0.07138026
252	0x3ea5d331	0.3238769
253	0x3e1cb524	0.15303475
254	0xbf316932	-0.6930114
255	0x3e2a28dd	0.1661715

net.6.bias f4 [16]
0	0x3a2f4ac3	0.00066868606
1	0x3e134c30	0.14384532
2	0x3eb003c5	0.34377876
3	0xbddffce1	-0.10936905
4	0xbda73b22	-0.081655756
5	0x3ea74810	0.32672167
6	0xbd7349d5	-0.059396584
7	0xbf20e791	-0.6285334
8	0xbd4e1521	-0.05031312
9	0x3f0cbdbc	0.5497701
10	0x3ec106fe	0.37700647
11	0x3d4cb5c8	0.049978048
12	0x3ed6e949	0.41974857
13	0xbe9fbdc3	-0.31199464
14	0x3ed844cf	0.42239997
15	0x3e60f5a4	0.21968704

net.8.weight f4 [7, 16]
0	0xbefb7c01	-0.49118045
1	0xbe6c7925	-0.23093088
2	0xbf977dce	-1.1835268
3	0xbe25b165	-0.16180952
4	0xbd3dbc22	-0.046321996
5	0x3f02439d	0.5088442
6	0xbc6a27e2	-0.014291735
7	0xbf01edfc	-0.5075376
8	0x3a3d94e0	0.0007231962
9	0x3fbbdcc9	1.4676753
10	0x3ebc0475	0.3672215
11	0xbf3cca00	-0.7374573
12	0xbeae12c3	-0.3399869
13	0xbe0ec519	-0.13942374
14	0xbd9400cb	-0.07226714
15	0xbdfe18f8	-0.12407106
16	0x3f23039b	0.63677377
17	0x3f1df7dc	0.6170633
18	0xbf1f0d00	-0.6212921
19	0xbe4bcf65	-0.19903333
20	0x3dc84dae	0.09780441
21	0xbf348c75	-0.7052682
22	0xbf012c7e	-0.50458515
23	0xbe566ea9	-0.20940651
24	0xbddb6d03	-0.10714152
25	0x3f80fd12	1.0077231
26	0x3e93e4a6	0.28885382
27	0xbf4f0359	-0.80864483
28	0x3e18c6c5	0.14919575
29	0x3d28c545	0.041203756
30	0x3f34a1d5	0.70559436
31	0xbea795b5	-0.32731405
32	0x3f505c73	0.81391066
33	0x3f21063b	0.6290013
34	0x3f955f69	1.1669742
35	0xbe68bab3	-0.2272747
36	0xbd6548fa	-0.0559778
37	0xbed8bc94	-0.42331374
38	0xbecd7e61	-0.40135482
39	0x3ee27fa6	0.44238013
40	0xbd17a2be	-0.037020437
41	0xbf644f8e	-0.8918389
42	0xbe86384a	-0.2621482
43	0x3f183977	0.59462684
44	0x3e096a04	0.13419348
45	0x3e089573	0.1333826
46	0xbe05cd87	-0.13066684
47	0xbe067557	-0.13130699
48	0xbed6f0ad	-0.41980496
49	0x3ea71f58	0.326411
50	0x3f29ebd2	0.6637546
51	0xbe04197d	-0.12900348
52	0xbde89121	-0.11355806
53	0x3eb26551	0.34842923
54	0xbe5acc1b	-0.21366923
55	0xbeb11971	-0.34589723
56	0x3e6b67d7	0.2298883
57	0xbff3e6ae	-1.9054773
58	0xbf220498	-0.6328826
59	0x3efd6134	0.49488223
60	0xbeba14a6	-0.36343879
61	0x3e3eb814	0.18624908
62	0xbf1f8ecf	-0.62327284
63	0x3f9755a2	1.1823008
64	0x3ea5338b	0.32265887
65	0xbfcd2cbc	-1.6029277
66	0x3dc1eca2	0.09468962
67	0xbdca1187	-0.09866624
68	0xbd2c2954	-0.0420316
69	0x3e0cf067	0.13763581
70	0x3e421668	0.1895386
71	0x3e2d9f9b	0.16955416
72	0xbe4fd747	-0.20296966
73	0xbed78b99	-0.42098692
74	0x3fa71302	1.3052676
75	0x3f40dfca	0.75341475
76	0xbf61e8a6	-0.8824562
77	0xbf16dc3c	-0.589298
78	0x3f011a40	0.5043068
79	0xbe8159b6	-0.25263757
80	0xbf41f70f	-0.75767606
81	0x3e06b824	0.13156182
82	0x3f453141	0.7702828
83	0xbe6138b2	-0.21994284
84	0x3dd66246	0.10467963
85	0x3ec65e2a	0.38743716
86	0x3e21466b	0.15749519
87	0xbcb37a79	-0.021908985
88	0xbdae7d45	-0.08519987
89	0xbed4d156	-0.4156596
90	0xbe362d9e	-0.17790839
91	0xbe07f63e	-0.13277528
92	0x3f9715e0	1.1803551
93	0x3f98576f	1.1901683
94	0xbec7f1ca	-0.39051658
95	0xbe13428e	-0.14380857
96	0xbd852a04	-0.065021545
97	0xbed44bed	-0.41464177
98	0xbf163578	-0.58675337
99	0x3e6600ec	0.22461289
100	0xbe5235ef	-0.20528387
101	0x3e8ad610	0.27116442
102	0x3e1b2580	0.15151024
103	0x3f7960da	0.9741341
104	0xbe415cdc	-0.1888308
105	0x3f4dcffd	0.8039549
106	0xbf0a4dc2	-0.540249
107	0xbdf22e04	-0.11825183
108	0xbf3c8c6e	-0.7365178
109	0xbedc4d13	-0.43027553
110	0xbf4fa271	-0.8110724
111	0xbe860944	-0.26178944

net.8.bias f4 [7]
0	0x3ee79f65	0.45238796
1	0x3ebd624d	0.3698906
2	0xbef05039	-0.46936205
3	0x3e601cdf	0.21886013
4	0x3d934039	0.07189984
5	0x3e781db1	0.24230076
6	0xbf17a503	-0.5923616
